checkpoints/ARN_model.pth (torch_old, 843782 bytes, 60 tensors)

conv0_0.0.weight f4 [32, 32, 3, 3]
00000000: 6046 f2bd a4a9 543e 97a4 87bd e31c eebd
00000010: 5c45 98be 9255 0b3e 7045 adbd dd20 5e3e
00000020: 9db4 fe3d 6de8 4c3d f040 efbb 583f df3b
00000030: 213d 1f3d f851 48bd 8c35 70bd 27c6 643d
00000040: 8869 dd3b ae9e 1fbd e220 cc3d 38fe 0f3e
00000050: 401d 8f3e 1798 d43e 8bec a7bc de05 4ebe
00000060: ac22 2bbe 5e33 febe 7085 9fbe 7f08 853a
00000070: 463c 8ebe e1d6 d7bd 16da 81bd cea6 39be
00000080: 0bce a7be 9b35 70be adef a7be 2453 4f3e
00000090: b077 1fbe b510 0bbf 234d bebe 3296 1fbd
000000a0: 03d0 1bbf 829d 243c 6b18 6b3d 6685 ef3d
000000b0: e992 1fbf edac 32be 521b 063e 34fe db3d
000000c0: fab1 0dbe 230d 463e 4b1a 833d f867 44bf
000000d0: cc79 c03c d45b 3dbb 4c79 1f3e e773 e2bd
000000e0: a62f 1cbc 2f51 80be f74a 283f 1ecd ebbe
000000f0: 5edd a63e 204d 69bf b6ca e03d e654 d53d
00000100: ff92 40bf f332 6ebf 0ccc 79bd 2a5d 31bf
00000110: fa6d b03e 964d d9bc bfeb 77be 21e7 c4bf
00000120: 5520 933c 3d7d 68be 94f9 47be 89a8 74be
00000130: bfb1 4fbe 1093 71be 71f5 f4bd dec1 9a3d
00000140: 5656 7ebd b20b 78be 3c3d 4fbd 9d15 e4bd
00000150: ed80 f0bd aaf0 743c b1c8 ffbd d047 66be
00000160: f296 9cbe 50d0 72bd 2460 39bc c0ba d7bc
00000170: c6ab 35bd fa93 cf3c 5ab2 6fbd 647d 09bd
00000180: 7d4d 0fbd e00d 3abd 5022 81bb c24d 16bd
00000190: f129 573d 5e2e fd3c 99ab 3e3d a77b 593d
000001a0: 7d57 0ebd 27ed 463d 1c50 043c 9d24 5abd
000001b0: dcb4 dfbd 5976 61bd e4f2 2ebd a195 97bf
000001c0: acc6 9ebd edec 26be 395b 09be e516 8cbe
000001d0: d7f0 51be 3a5e 20bc 3cfd cfbc 3764 013d
000001e0: 568a a0bc cce3 febd 7fad 85bd f288 cabd
000001f0: fe98 87bd 3d97 a1bd 122c 19be e603 6dbe
00000200: 3313 c6be 039e b83d 0329 893c 49a9 0abe
00000210: be44 aa3d 1eea a2bd 9887 c5bc 88ef 693e
00000220: b98a aebd a76b 163d ff68 dabd 4183 11bd
00000230: ab13 5b3d 0c26 ca3d 5f9c 38bf ed09 ee3d
00000240: ba0f 1abe 1735 39be c080 13bf afdc 3cbd
00000250: cff9 44be 1ffc 893c e0f8 83bc 31dd 08be
00000260: 0d16 c5be 8e48 fdbb fac4 223d 72e5 dbbc
00000270: f9ce 283d dabd 3e3c 373e 5cbc 4c74 cc3c
00000280: f882 ad3d 43c1 1c3d 9d3b 7ebc 55b1 93bd
00000290: 6dfe d13b 0118 88bc d01e 43bd 957e cfbc
000002a0: eee4 a7bc 9823 b23c 4681 aabc b98d 2b3c
000002b0: 63a6 84bd 4f86 913c 5ec3 09bd 57f1 bc3c
000002c0: 68b4 973c 0742 1e3d 3dc0 363d 812f 6ebd
000002d0: c286 8cbe 3f69 8dbd 604f e2bd 94ef 54bf
000002e0: a2aa 4f3e 8a9b 77be 7ed0 313f e944 cabe
000002f0: 1f18 bfbd b85b bb3e c2f6 1a3c 72d3 54bf
00000300: b964 d4bf e79b a83e fd82 1ebe d914 703e
00000310: 50bf a9be 80ea ee3d b517 eb3c 5c35 87bd
00000320: 4634 79bd 88f0 f73d bac5 893d eec4 2bbe
00000330: baa1 0ebe 0df2 94bd f7e2 c2bd 0d30 203e
00000340: f3ca edbe 3158 a0be 60c9 54be 1a88 053f
00000350: 5da9 49bf 9148 183e a3d1 85be 3f15 75be
00000360: bad0 c0be 9699 92be 0661 2fbf f535 93be
00000370: c279 d0bd 4823 873e 073f 183f 1249 03be
00000380: f3af 0dbe 8273 9f3e 532b 603e 3695 083e
00000390: b7d9 33be 1a97 92be 9346 863e b798 be3d
000003a0: e639 89be 0881 23bf 22fd 813e ae90 3abf
000003b0: 057d b13e 964d 43be e910 b13e 4ffb 003e
000003c0: f58f 083f 6b4d 02bd e9ae cfbe 9838 373c
000003d0: d7ca 90bd 6eef e0bc 96a4 87bc 25b2 42bd
000003e0: 7d6a afbd c427 07bd b478 19bd d77d 84bc
000003f0: e032 c8bd d0ae 1abe d0fe 3fbc 3f18 14be
-0.11829829 0.20767838 -0.0662319 -0.116266035 -0.29740417 0.13606861 -0.0846051 0.21692224
0.12436793 0.050026346 -0.0073014423 0.006812971 0.038876656 -0.048906296 -0.058644816 0.055853035
0.006756965 -0.038969688 0.099672094 0.1406182 0.27952003 0.41522285 -0.020498535 -0.20119426
-0.16712445 -0.49648565 -0.31156492 0.0010149627 -0.2778036 -0.10539032 -0.06340425 -0.18130037
-0.32774386 -0.23457949 -0.32800046 0.2024656 -0.15573001 -0.5432237 -0.37168226 -0.038961597
-0.60864276 0.010047318 0.057396334 0.116953656 -0.6233354 -0.17448778 0.1309636 0.10741845
-0.13837424 0.19340949 0.06401499 -0.76721144 0.023495577 -0.0028893845 0.15573615 -0.11057263
-0.009532845 -0.25061938 0.6573939 -0.4605493 0.32590765 -0.9113331 0.10976164 0.10416584
-0.752243 -0.9304649 -0.06098561 -0.6928278 0.34458905 -0.026526254 -0.24211024 -1.5383035
0.017959753 -0.22704025 -0.195288 -0.23892416 -0.20282649 -0.23591256 -0.11960877 0.075565085
-0.062094055 -0.24223211 -0.050595507 -0.11136935 -0.11743341 0.014949957 -0.12489451 -0.22488332
-0.30583912 -0.059280694 -0.011314426 -0.026334167 -0.04435327 0.025339115 -0.0585197 -0.033566847
-0.034986008 -0.04542339 -0.003940858 -0.03669525 0.052530233 0.030905899 0.046550367 0.05309644
-0.034751404 0.04856601 0.00807574 -0.053257573 -0.10923168 -0.055044506 -0.042712107 -1.1842538
-0.077527374 -0.16301318 -0.13413705 -0.27361217 -0.2050203 -0.00978809 -0.025389306 0.031589713
-0.019597214 -0.124457926 -0.065272324 -0.098894015 -0.06620978 -0.078901745 -0.14958218 -0.23146018
-0.38686523 0.09014513 0.016743189 -0.1354114 0.08313893 -0.079548106 -0.024112508 0.2284528
-0.08522553 0.03672376 -0.10664558 -0.035525564 0.053485554 0.09870538 -0.72113603 0.11622987
-0.15045062 -0.18086658 -0.5761833 -0.046108898 -0.1923592 0.016843854 -0.016109884 -0.13365628
-0.38493386 -0.0077295965 0.039738633 -0.026842806 0.04121301 0.011641944 -0.013442568 0.024957798
0.08472246 0.038270246 -0.015517143 -0.07211558 0.0064085037 -0.016613008 -0.047636807 -0.025328914
-0.020494904 0.021745488 -0.020813596 0.010470801 -0.06477048 0.017764239 -0.033633582 0.023064299
0.018518642 0.038637187 0.044616926 -0.058150772 -0.27446562 -0.0690484 -0.11050296 -0.8317807
0.20279935 -0.24180427 0.6945876 -0.395057 -0.093307726 0.36593413 0.009458246 -0.8313514
-1.6593238 0.32931444 -0.15479656 0.23445453 -0.33153772 0.11665821 0.028697828 -0.06601974
-0.060840867 0.121064246 0.067271665 -0.16774341 -0.13928881 -0.0727273 -0.09515946 0.1564333
-0.464439 -0.31317285 -0.20779943 0.521608 -0.7877405 0.14871432 -0.26136503 -0.23933886
-0.37659246 -0.28632802 -0.6850742 -0.28752103 -0.101794735 0.26394105 0.5947117 -0.12820843
-0.1383665 0.31142813 0.21891527 0.1333817 -0.1756352 -0.28630906 0.2622572 0.09306472
-0.26801986 -0.6386876 0.25388438 -0.72877014 0.34665695 -0.19072565 0.34583214 0.12595867
0.5334466 -0.031812113 -0.40563133 0.011182927 -0.07069939 -0.027457919 -0.016557973 -0.047533173
-0.08565233 -0.032996908 -0.037468627 -0.016173286 -0.09775329 -0.15105748 -0.011718467 -0.14462374

conv0_0.0.bias f4 [32]
00000000: cc28 39bb dbd1 24bd 25cc 71be 5898 c8bc
00000010: 4d85 72bd d50c bcbd 3c43 8d3d c0e8 6fbc
00000020: ef5d 81bd 94a4 6abd 62a9 83bc 4318 7dbd
00000030: c6a3 8dbd af7c 9bbc d73b 2abc 2ede 3fbd
00000040: 37b7 07bd 8cba 62be 6332 0cbd fe32 58bb
00000050: 24be 38be 421a 2abc 468c 0abd 0cfc 64bd
00000060: 9dbd 0dbd 9084 b0bd 3fb0 f7bc 7bda 09bd
00000070: 54e7 00bd e184 98bc 8b02 40be 4bac 8abd
-0.0028253077 -0.040239196 -0.23613031 -0.024486706 -0.059209157 -0.09182135 0.068975896 -0.014642894
-0.063167445 -0.05728586 -0.016071979 -0.061790716 -0.06916003 -0.018980352 -0.0103902435 -0.046842746
-0.03313371 -0.22141474 -0.03422774 -0.0032989378 -0.18041283 -0.010382237 -0.03382518 -0.055904433
-0.034604657 -0.08619034 -0.030235408 -0.033655625 -0.03147061 -0.01861805 -0.1875097 -0.067711435

res_conv0_1.0.weight f4 [32, 32, 3, 3]
00000000: e803 7ebc c09b 1f3c 320e 943c 44d9 3bbd
00000010: 42e3 afbb 0ccd 94bc f721 613c 4b74 c6ba
00000020: 8057 ea3c ad92 72bc 02ac 4bbd 58db 4cbb
00000030: d890 a6bd 55c6 07bd 9828 8c3c 0c68 dfba
00000040: 92f3 a2bd 6f0f 82bc af7c 213d d80d 25bd
00000050: 00bc bf3a 86d7 84bc d622 fa3c 9af2 f53c
00000060: 9f00 533d 00d9 6b39 b307 193d 4423 06bd
00000070: 7e7e a4bd a610 b6bd f613 33bc f3d5 30bd
00000080: 9ca0 12bd d433 36bd 2fcc 75bd a18d 7bbc
00000090: d8cf a8bc bda0 0ebd efd2 59bc a9a2 3d3b
000000a0: cc64 033c 21c6 8dbd cfe0 f7bc faf5 32bc
000000b0: 7cd2 e2bc 5508 5c3d f4b7 47bd e603 4abd
000000c0: 74bc aabc f8e5 bd3b 99f9 333d 6e25 b43c
000000d0: 9476 dbbc 6c14 3dbd ea1a 26bc cda6 a0bc
000000e0: 9a80 bebc e3ce 11bd 6f86 053c 23a8 c6bd
000000f0: 0780 2ebb aae3 34bd aaea b1bd 9abd a9bc
00000100: bc9e 2ebb 619a a7bd 6dd7 c1bd dd3f 93bc
00000110: 7186 64bb e67c 8dbd 8380 efbc c21d b4bd
00000120: 48fb 90bc 51e7 8dbd 7e10 c8bc 084c 9ebd
00000130: 430f b5bd 06e6 3bbd f1cf cdba a0c5 2ebd
00000140: c838 06bd 47cb ecbc 3e5c 9fbc 0655 83bc
00000150: 8c42 b7bd 2e3a 76bd 6344 aabc 431c b1bd
00000160: 534a 01bd face ecbb 7416 13bd 6b8c a2bd
00000170: a959 2fbd 5d80 28bd 9cbf 9ebd 5a88 b4bd
00000180: dde9 04bd d97c 7dbc 4bb6 bfbd 5b39 61bd
00000190: bec8 aebd 0167 a5bd b620 5fbc a934 93ba
000001a0: 21b0 a6bc 607e 36bd 0553 303c df66 a1bd
000001b0: 81ec 5cbd b45a 1fbc f6ce 863c 491f 33bc
000001c0: 4557 b23a 352a 6f3d 9d4d 40bd 8a54 61bd
000001d0: 0ed9 03bd 4c92 b6bd 65c1 16bd dbce 1bbd
000001e0: 8856 5b3b 2f38 a4bc 83f6 d1bd 929a a8bd
000001f0: dfde a8bd de68 e0bd 9f3b bbbd 8236 8fbb
00000200: fce0 8cbd cac5 d4bd 610d 28bd 159e b8bd
00000210: da61 1ebd ae47 70bc 6803 2bbd 8d6d 3abd
00000220: 49c1 01bd 048b 743c 5762 03bd e88a febc
00000230: 6da6 a23c 8a00 893c 3d4b 04bd f239 6cbc
00000240: bec9 db3b ea26 1ebd 09da 2cbd 30c9 ddbc
00000250: 5081 483c 8207 3e3d 2702 c4bd b9f5 8cbd
00000260: e4bf 483c 3531 4c3d 0d47 43bd 5e71 833c
00000270: 3fc4 273d bc72 7abc 21f4 39bd 59e3 31bd
00000280: b82a 913b 0c52 4fbc a6ee 96bb eba2 67bd
00000290: 9dfc 22bd c0ba a7bd e79f 733c 2f15 d53a
000002a0: 3182 b7bd d221 a5bd 4abb 01bc a049 88bd
000002b0: f862 69bd 8aa7 34bd 7971 a7bd 9dd8 65bd
000002c0: 6549 d6bd 2b74 11bd 09a2 16bd 3e08 cfbd
000002d0: 425a 27bd 5c53 4d3c 62c7 973c 16d8 b83c
000002e0: 0459 45bc 568f fb3c 2006 533b 32a5 a83c
000002f0: 8a7c 27bd ad1d 17bd d073 88bd 7780 23bc
00000300: 453a 9cbd 2c6c 55bd c93d a6bd 932d 003c
00000310: 78f9 86bd 7e70 e53b ac5f eebb 9114 a4bd
00000320: 6d21 243c 8199 61bd b466 94bd 46db aebc
00000330: c5ea fcbb 15e2 94bb 7b71 4cbb be83 3abd
00000340: 7561 7dbb a328 1fbd a488 94b9 49b8 f9bc
00000350: 8905 68bd 29cc a5bc 9da1 93bd 2fe8 60bd
00000360: 98c3 23bd 3b37 4bbd 2a06 0c3c c99d 35bc
00000370: 3a09 94bd 7ab0 fb3b 3fc1 21bb 302d 23bd
00000380: cd81 56bc 3baa 8fbd c49a b9bc d8b3 10bd
00000390: 3168 98bd a048 94bd c986 103d 2581 9dbd
000003a0: fedd afbd edb8 0e3d a000 17bd 16db e0bc
000003b0: d9d6 c1bd f672 87bd 896e 92bc b532 59bd
000003c0: 0127 d9bb 933e 90bd 0b2d 6abd 2c54 bdbd
000003d0: 7529 27bc 846f a7bc fc03 21bd 9f93 96bb
000003e0: 90c7 913b 3bd6 4bbd 3959 3c3c e1f8 78bd
000003f0: 7865 c6bc e3d4 a2bd 7a60 73bc 5ae6 5ebd
-0.015503861 0.009741724 0.018073175 -0.045861498 -0.0053676674 -0.01816418 0.013741008 -0.0015140859
0.028606176 -0.014805478 -0.049724586 -0.0031258669 -0.081330955 -0.03314813 0.0171092 -0.0017044558
-0.079566136 -0.0158765 0.03942555 -0.040296406 0.0014628172 -0.01621605 0.03053419 0.030022908
0.051514264 0.00022492185 0.03736086 -0.032748476 -0.08031939 -0.08889894 -0.010930052 -0.043172788
-0.0357977 -0.04448302 -0.060009178 -0.015353591 -0.02060692 -0.03482126 -0.013294919 0.0028936064
0.008019637 -0.06922556 -0.030258564 -0.010922903 -0.027688257 0.053718884 -0.048759416 -0.049320124
-0.020841815 0.0057952367 0.043939207 0.021990504 -0.02678994 -0.046162054 -0.010138253 -0.019610787
-0.023254681 -0.035597693 0.008149727 -0.09700038 -0.0026626603 -0.04416243 -0.08687337 -0.020720292
-0.0026644906 -0.08183742 -0.09464917 -0.017974788 -0.0034870172 -0.06908588 -0.029236084 -0.08794738
-0.017697945 -0.06928886 -0.024421927 -0.077293456 -0.088408016 -0.045873664 -0.001570223 -0.04266894
-0.032768995 -0.028905524 -0.019453164 -0.016031753 -0.0894824 -0.06011408 -0.020784562 -0.086479686
-0.03156502 -0.007226822 -0.035910085 -0.07936939 -0.042810116 -0.04113804 -0.0775139 -0.088150695
-0.032449592 -0.0154716605 -0.093609415 -0.05498634 -0.08534382 -0.08076287 -0.013618639 -0.0011230904
-0.020347657 -0.044554114 0.010761981 -0.07880949 -0.053936485 -0.009726215 0.016456109 -0.010932752
0.0013606331 0.05838986 -0.046949018 -0.055012263 -0.03218942 -0.08914623 -0.03680553 -0.03803907
0.0033468325 -0.020046322 -0.102520965 -0.08232607 -0.08245634 -0.10957502 -0.09142231 -0.0043705115
-0.0687885 -0.10389288 -0.041028384 -0.09014527 -0.038667537 -0.014665527 -0.041751295 -0.045514632
-0.03167847 0.014925722 -0.032076206 -0.031072095 0.019854749 0.01672389 -0.032298315 -0.014418112
0.006707399 -0.03861133 -0.042200122 -0.027073473 0.012237862 0.04639388 -0.09570723 -0.068828054
0.012252782 0.049851615 -0.04767518 0.016045269 0.04095864 -0.015286144 -0.045398835 -0.043429706
0.0044301413 -0.012653839 -0.004606086 -0.056551855 -0.039791692 -0.081899166 0.014869667 0.0016256924
-0.08960379 -0.08063091 -0.007918188 -0.06654668 -0.05697915 -0.04410509 -0.0817594 -0.05611478
-0.10463218 -0.035511177 -0.036775623 -0.10108994 -0.04085756 0.012532081 0.01852769 0.022563975
-0.012045149 0.030707996 0.0032199696 0.020586584 -0.040890254 -0.036893535 -0.066627145 -0.009979359
-0.076283015 -0.052105114 -0.08117253 0.007823366 -0.06590551 0.0070019355 -0.0072745886 -0.08011735
0.010017735 -0.055078033 -0.072461516 -0.021344792 -0.0077184164 -0.0045435526 -0.003119557 -0.045535795
-0.0038662825 -0.038857114 -0.00028330565 -0.030483382 -0.056645904 -0.020238953 -0.0720856 -0.054908928
-0.039981455 -0.04961322 0.0085463915 -0.011084982 -0.07228322 0.0076809498 -0.0024681834 -0.039838016
-0.01309247 -0.07014891 -0.022656806 -0.035327762 -0.07441748 -0.072404146 0.03528479 -0.07690648
-0.085872635 0.034844328 -0.03686583 -0.027448218 -0.09464807 -0.06613724 -0.017874973 -0.053026874
-0.006626964 -0.07043185 -0.057171863 -0.0924457 -0.010202755 -0.020438917 -0.03931044 -0.0045952345
0.0044488385 -0.049764853 0.011495882 -0.060784224 -0.024218306 -0.07950761 -0.014854545 -0.0544189

res_conv0_1.0.bias f4 [32]
00000000: 718f 4dbd 5fd0 0abe 43d6 9dbd d332 5e3d
00000010: ff23 51be 3bc2 94bc 76aa 58bc 098a 6fbd
00000020: 8c68 52be a9b2 27be 9c97 753d 4423 4e3d
00000030: 92eb 0cbd 4183 55ba ae3b b43b 578e c6be
00000040: b959 2dbd ff93 9bbd ac09 a4bc 4ccb 993b
00000050: f8fe 813c 4168 54bc f8c1 a63c 9c00 39be
00000060: c897 00be dcaf 313d 712b 693d 9c9c f93c
00000070: 9345 26be 645d 45be a341 9bbc bd7c 86bd
-0.050185625 -0.1355605 -0.07706883 0.05424769 -0.20423888 -0.018159023 -0.013224235 -0.05848125
-0.20547694 -0.16376747 0.05995904 0.0503266 -0.034404345 -0.00081448635 0.0055002784 -0.38780472
-0.042321894 -0.075965874 -0.020024143 0.0046934243 0.015868649 -0.012964309 0.020356163 -0.18066639
-0.125579 0.043380603 0.056926195 0.030470185 -0.16237478 -0.19273907 -0.018952196 -0.06566761

res_conv0_1.2.weight f4 [32, 32, 3, 3]
00000000: f058 73bb 32b4 9ebc b776 dd3c 3d19 05bd
00000010: ad17 873c c853 63bd 287a 9d3c 89b0 ec3c
00000020: 1c38 213c 6d7d 673c 9679 26bd 910f 3fbe
00000030: cefb a53d f984 103d bd2e 3dbe bcb4 923d
00000040: 4c57 6c3d e7b6 06be 8b99 09bc 9767 c1bb
00000050: 9ed0 9739 5f52 a73d 9b5c 193d 613e a7bc
00000060: 4f29 933d 1796 843d 6894 273d 41b1 c1bc
00000070: ffe8 223b bb34 fc3c f5ec 0b3d 0de3 4bbd
00000080: 1679 163c 171c 943c bf4e 8a3c 716f bcbc
00000090: 688c 32bd a9f2 2bbc 3a1f 913b d49e 243d
000000a0: 3363 c6bc e25f c13d 97ca b43c d423 763d
000000b0: eb73 9bbb c28c 07bd 520a 37bd aa74 16bd
000000c0: 13e1 90bd 4453 05bd c9d2 f3bc 64f9 f3bd
000000d0: bb4d 97bd ada4 a2bd e415 8bbc f9ab 68bc
000000e0: 7c0a 033d 7e00 513d 641a 8c3d 3499 a23d
000000f0: d8e9 a63c 3f6e 2c3c 0553 6d3d 2839 69bc
00000100: 325b 4b3b 3d3d 40bc 7334 c23b aee5 bc3d
00000110: 8492 973b 45a7 ae3d 71d6 8c3c ce4d ec3c
00000120: bd25 80bd 5ca1 a3bd 61b1 b73c 0736 a6bd
00000130: d65f 9b3b 0efb 083c 9f94 54bc 450f fe3c
00000140: 3cb5 23bd 2435 b0bc adec 133d 5079 65bd
00000150: d8de b3bb 8ed3 e73c d085 6a3b 3ec5 f73c
00000160: 0169 563d f6c7 d0bc 2e38 41be f9c7 acbd
00000170: 0a07 f2bd 42f8 51be a36f 07be fbdf 26be
00000180: 31ea 67be 0a02 20be fe1b 30be c5bf f53b
00000190: 2e81 54bc 984d 8c3b be37 283c be9f 333c
000001a0: 96bf 7ebc 5872 6a3d 5d7e d63c 9f85 60bd
000001b0: d027 ba3d 8b53 843c e66c b43d b27c 2e3d
000001c0: 6c7b 95bc 2c83 643c 8ff2 3a3d 39cf 583d
000001d0: 0e96 4d3d c8b6 c1be a793 bebe f26f 99be
000001e0: f077 c1be 8f9a aabe cfd6 afbe 652e a8be
000001f0: 7e73 a3be be53 9dbe 15f3 1bbc d5ea 6f3d
00000200: 05db ac3d afbf 833d f568 963d d923 203d
00000210: a803 66bc e06b a03d 9e2a ac3d 5803 d5be
00000220: 92f6 fdbe 0a4c 0dbf e0ac c3be 340d efbe
00000230: bc0b ffbe e07e b7be 1d50 c5be 8ff0 c0be
00000240: b32e b1bc 7b83 813d 0630 193d 46fc 353d
00000250: 4167 ad3b 37f3 bc3c 0891 6a3d 5f52 4c3d
00000260: cf83 b23d 5664 e5bc 6eea 0ebd dca9 36bc
00000270: 6a94 c8bc 52ba bfbc 58d5 e43b 0262 61bd
00000280: 99fc 4f3d 2b0a c6bc fdb0 693c e7b2 a63d
00000290: a4b3 8c3d fe62 503d f45e 043d 3952 a83b
000002a0: f13f 3cbc 34c8 9e3d 9ee4 c8bb b0c8 11bb
000002b0: 9d6d 9e3d cea0 7a3d ab15 adbc 593b 0f3d
000002c0: b2e9 54bb 0c1a a83d 5a83 863d 09d3 793c
000002d0: a06d 813d 7b3d 4a3d 5554 893d a144 833d
000002e0: d0d2 a23d 2655 7fbb 0511 083c 3f83 5ebb
000002f0: 7987 823d 349b ea3c d7ea 993d ada7 1c3d
00000300: c1d7 da3c cd9d 8e3c ecd3 9e3d 94b6 173b
00000310: c757 b03d cba3 9ebc 6a69 3bbd dc1f ad3c
00000320: c895 cf3c 6a5a 39bd 6722 6d3d 32f1 833d
00000330: d5e1 4cbc cad4 5d3d 198b 553c 2b9f 4dbc
00000340: 9d5e 45bd 6c6a 283d 4869 c73b 2b86 37bd
00000350: edd0 3abd 34c1 fd3c 0954 2d3d b94c 0cbd
00000360: 516c 8eb9 0785 493d eac0 75bd 4862 1b3d
00000370: a9fd 76bc 5b60 543c f4c8 f33c 6815 113d
00000380: c4eb 9dbb 1abf 8f3d fc40 883d d473 23bc
00000390: 7826 763d a82b 0dbd 4716 0fbd 596c b6bc
000003a0: 2dae 73bb e8b3 a63c 4f90 43bc fea0 6dba
000003b0: 2e9a f0bc 7c80 d2bc 5cdd 413d ed4a c53c
000003c0: b51a 1cbc e460 0ebd a2d4 d33b 0ce1 923c
000003d0: ce37 b9bc 8117 a2bc 0017 f03a 3e95 42bd
000003e0: 5ecb a6bd 97d9 20bd f1fd 3fbd b0c3 36bc
000003f0: e0bf 99bb abb1 63bc 1c18 b2bc 0339 123d
-0.0037131868 -0.019373033 0.027034147 -0.032494772 0.016490782 -0.055499822 0.019223288 0.028892772
0.009840038 0.014129025 -0.040643297 -0.18658282 0.081046686 0.035283063 -0.1847486 0.071633786
0.05770044 -0.13155709 -0.008398424 -0.0059022414 0.00028956396 0.08170008 0.03744183 -0.020415487
0.07185613 0.0647394 0.040913016 -0.023644092 0.0024858115 0.030786863 0.034161527 -0.04977708
0.009184143 0.0180798 0.016883252 -0.023002358 -0.043590933 -0.010494866 0.0044287713 0.040190533
-0.024217224 0.09442116 0.022069259 0.060092762 -0.004744043 -0.03309322 -0.044687577 -0.036732353
-0.070741795 -0.03255011 -0.029763596 -0.11912802 -0.07387873 -0.07941566 -0.016978212 -0.014201158
0.03199242 0.05102586 0.06840971 0.079393774 0.020375177 0.010524332 0.0579405 -0.0142348185
0.0031029698 -0.01173335 0.0059266626 0.092234954 0.0046256203 0.08527998 0.017192097 0.028845694
-0.06257198 -0.07989761 0.022423448 -0.08115774 0.004741649 0.008360637 -0.012974887 0.03101314
-0.03996776 -0.021509714 0.036114383 -0.056023896 -0.0054892115 0.02829912 0.0035785325 0.03024542
0.052346233 -0.025485974 -0.18869087 -0.08436579 -0.11817749 -0.20504859 -0.1322618 -0.1629638
-0.2264793 -0.15625778 -0.17198178 0.0074996674 -0.012970252 0.004281711 0.010267196 0.0109633785
-0.015548607 0.057237953 0.026183302 -0.05481493 0.09089625 0.016153118 0.08809833 0.042599387
-0.018247329 0.013947289 0.04564148 0.052931998 0.05019193 -0.37834764 -0.37222025 -0.2996822
-0.37786818 -0.33321044 -0.34343573 -0.32847896 -0.3192405 -0.30727953 -0.0095184045 0.058573563
0.08440212 0.06433045 0.07344238 0.039096687 -0.014038958 0.078330755 0.08406566 -0.41604114
-0.4960218 -0.5519415 -0.3821783 -0.4668976 -0.4981364 -0.35838985 -0.38537684 -0.37683532
-0.021628713 0.06323906 0.037399314 0.04443004 0.00529185 0.023065193 0.05726722 0.049883243
0.08716547 -0.028001945 -0.03489154 -0.011148896 -0.024484832 -0.023404274 0.0069834404 -0.05502511
0.050778005 -0.02417477 0.014263389 0.08139592 0.06870201 0.050875656 0.032317117 0.005136755
-0.011489854 0.077530295 -0.006130769 -0.0022244863 0.07735751 0.06118851 -0.021128496 0.034968708
-0.0032487926 0.08208093 0.06568022 0.015248069 0.063197374 0.04937504 0.06705538 0.06409574
0.079503655 -0.0038960665 0.008304839 -0.003395274 0.063734956 0.02863846 0.07515495 0.038245846
0.026714208 0.01740923 0.07755265 0.0023149597 0.08610492 -0.019365212 -0.045754828 0.021133356
0.025339976 -0.04525224 0.057894137 0.06442489 -0.012505014 0.05415801 0.013033652 -0.012550156
-0.048185933 0.041117117 0.0060855485 -0.044805687 -0.045609403 0.030975915 0.04231647 -0.034252856
-0.00027165053 0.04919913 -0.05999843 0.037935525 -0.015075126 0.012962426 0.029758908 0.035420805
-0.004819365 0.070188716 0.0665302 -0.009976346 0.06009528 -0.034465462 -0.034933355 -0.022268461
-0.0037182674 0.020349458 -0.011936261 -0.0009064822 -0.029370394 -0.025696032 0.047330245 0.024083579
-0.009527852 -0.03476037 0.006464557 0.017929576 -0.022609618 -0.019786598 0.0018317401 -0.04750561
-0.08144258 -0.03927001 -0.046873037 -0.011155054 -0.0046920627 -0.01389734 -0.021740012 0.0356989

res_conv0_1.2.bias f4 [32]
00000000: 281a 1dbe 4be7 34bd 2f60 9abd 71bf 86bd
00000010: 27d4 94bc 4201 8fbc 4310 aabd b73c bfbc
00000020: 2442 07bd 3060 a3bd e5c7 12bd bd59 21be
00000030: c270 74bd 7051 28bd 2ff8 5fbe 833f 51bc
00000040: d2f7 0bbe 0b5e 35bd a45f 00bc b43f cfbb
00000050: 5753 0cbe 0bce 81be 1a60 cfbc 753f d1bd
00000060: 3d9d b3bd bcb7 aebd ef71 8ebd 2e91 20be
00000070: 75f5 7ebd c496 c2bd 9d86 3bbd 327d 9abc
-0.15342009 -0.04416589 -0.07537877 -0.06579483 -0.018167568 -0.017456654 -0.08303883 -0.02334438
-0.03302206 -0.07977331 -0.035835166 -0.15756889 -0.059677847 -0.04109329 -0.21872018 -0.01277149
-0.13668755 -0.04427914 -0.0078353025 -0.0063247327 -0.13703667 -0.2535251 -0.02531438 -0.102171816
-0.08770225 -0.08531138 -0.06955325 -0.15680382 -0.062245805 -0.095014125 -0.045782674 -0.018858526

res_conv0_2.0.weight f4 [32, 32, 3, 3]
00000000: c974 113e ad53 8dbe b9a8 e8bd e5fc 463e
00000010: 6040 2cbe 2d61 8c3c 7673 7cbd 14a1 4dbe
00000020: 07a1 52bd 18aa 7f3e 4158 ed3d 60ff d03d
00000030: 66a6 293e 5c2b c4bc 96bd 173e 1a3b 01bf
00000040: 1f1f 6d3d 9716 183e 1e2c 40bd 7fb3 43bd
00000050: 4dd2 a8bd 8c72 0abd f4cf de3a 1046 f0bc
00000060: 3879 d3bc 25dd 243d 608b 633d 6b55 58be
00000070: db6a 47be 8d8f 2fbe 8c94 23be a3c6 31be
00000080: 0dbd 8bbe a5aa 3dbe a234 18be 8a0b 25be
00000090: 2ffc 6fbe 4d54 1cbf 8eb1 10bf 776d 2f3f
000000a0: 0220 853e 3dd5 42bd 7f52 76be 6e79 7bbe
000000b0: 84bb 4cbe 7a99 00bf a00a febd 9002 60be
000000c0: a928 903e 0882 c93e 1d81 863d f518 a53e
000000d0: 6925 d73e bdc7 b13e 74f8 6bbe 9fdf 66be
000000e0: 013c 0dbe 6f22 95bd 6200 7e3d dd98 a9bd
000000f0: 0bfa 05bf 8a6c 3bbe c5b5 abbc 41a9 053e
00000100: 0d6b 513e d6e1 2c3e 9c8b d53d 1db0 103e
00000110: 9631 d33d f569 de3d d067 153e 0a6b be3d
00000120: f9cc eabc f8bc 2b3d e413 573d e3ad 203d
00000130: 80d7 00bd 4606 8d3c 1567 48bd 6242 1ebd
00000140: c51a 643d e504 eebc 4d10 3c3d 3282 853d
00000150: 89c2 e73b 64dc 8a3c a52b 393d 4981 d83c
00000160: e9b7 8e3d 1553 b13d 5580 9bbc eee3 7c3c
00000170: 5114 38bb fb26 be3c 5f44 e83c cb57 a73d
00000180: 3bbb 2f3d eba0 723d 176c 513d d669 67bc
00000190: 8e65 b7bb 49b1 953c 3997 5abd 46f4 a53c
000001a0: c0e2 2d3c 374c ffbc 9f3b a13d f6dd 923d
000001b0: b0e5 183b 697a d4ba 576d a0bd 0211 573d
000001c0: 3c63 de3c ebdc 11bd 0f71 fcbc d5d8 493d
000001d0: 8ca7 0ebc f6bf b1ba 4e34 a43d 5392 323d
000001e0: f479 6b3d 45fb f53c 855b dcbb 6faf e23a
000001f0: 0ecc 4b3c 4819 073d 3ca0 a13f 4cf0 30be
00000200: ab80 693d a753 593e e4e6 f13e f7fd ef3e
00000210: 4ebd d63d c7e0 1f3f c32f bb3e 104c e7bc
00000220: bedb 41bd 845d c43b 98bd 3dbd 4d19 1abd
00000230: aaf5 51bd 8b0f 1fbd f039 19bd 3e9a 853c
00000240: bc17 6dbd c256 2cbd 51f3 19bd 93a0 b63c
00000250: a154 313d 0e9a 73bc 75dc 5b3d f575 81bc
00000260: ed36 9ebd 7fda 8bbc fe52 093c 9dd1 c63d
00000270: 7ad3 98bc 2f52 66bc 45e0 8b3d c7be 1e3d
00000280: c166 933d a557 923d 84f2 8f3e dd15 a13e
00000290: 33fe 993d 8d8c 32bf 8462 28bf 8e4f 47bf
000002a0: e166 49bf f0e2 23bf 6d60 45bf 00b9 c3be
000002b0: 487d 2e3d 22f5 86be cc42 20bf f26c 0dbe
000002c0: 0676 91bc 0962 b23d bfa4 c83e 19f2 e3be
000002d0: d26c 733c 8c2c 4fbb ae81 3cbd ee92 6dbd
000002e0: c71f 0b3d 71b2 48bd 2d43 f03c 3ff6 713b
000002f0: fd7c 0ebc 48e7 f63e 313f 5a3e 6513 093e
00000300: e84f cf3e 63c7 99bd 2b50 5cbc 2c24 903f
00000310: 3e5d 9b3e 912a c6bd d642 fabc 0ac0 673a
00000320: 3e7c 9b3c 6c2c 5ebd fce4 e93c da69 5c3d
00000330: 2e44 a3bc dbaa 6ebc cc90 6a3b b6bb 953c
00000340: 3eb1 1a3d f113 c63d bab7 633c 27b1 733d
00000350: ded6 003c 954b f63c 41a3 b03d 2c25 383d
00000360: ed07 ab3d 9902 c93e 23b3 8a3d ca6c 153f
00000370: 62f7 2bbe 1353 7f3e 5a64 4dbf 7e23 65be
00000380: 88f1 ec3d 64ad 6bbc e424 55bc 7572 053d
00000390: a857 8ebc 2a92 993c 8fe4 8e3c 9c9b 5fbd
000003a0: 7f05 bf3d 848f 873d 997c c2bb 2858 833d
000003b0: c031 f03b 9c4a 17bb 45ac dcbb bf95 773c
000003c0: d7ca 61bc 3416 333c 4a76 963c f9e2 023c
000003d0: c512 9c3d 1b5f a03c 14bb b93d b340 943d
000003e0: 719b 713d 8389 903c acfb f53c 637b 0c3b
000003f0: 40f5 5e3d e675 e93b b45a 9bbd 8a87 03bd
0.14204706 -0.27602902 -0.11360306 0.19432409 -0.16821432 0.01713618 -0.06163355 -0.20080978
-0.0514231 0.2496723 0.11589099 0.10204959 0.16567382 -0.023946457 0.14818415 -0.50480807
0.057891008 0.14852367 -0.046917073 -0.047778603 -0.08243237 -0.033800647 0.0016999231 -0.029330283
-0.025814638 0.040249962 0.05555284 -0.21126334 -0.19474356 -0.17144604 -0.15974635 -0.1736093
-0.27292672 -0.18522127 -0.14863828 -0.16117683 -0.23436044 -0.6106613 -0.56520927 0.68526405
0.26000983 -0.04756664 -0.24054907 -0.2455804 -0.19993407 -0.50234187 -0.1240437 -0.21875978
0.2815602 0.39357018 0.06567595 0.32245603 0.4202073 0.347227 -0.23043996 -0.22546242
-0.13792421 -0.07281958 0.062012084 -0.082811095 -0.5233466 -0.18303123 -0.020960698 0.13052846
0.20450993 0.16883025 0.10427019 0.14129682 0.10312192 0.108600534 0.14590383 0.0929776
-0.028662192 0.04192826 0.052509204 0.03922833 -0.031455517 0.017214905 -0.04892643 -0.038637526
0.055689592 -0.029055068 0.045913983 0.065189734 0.007072751 0.016950794 0.04520764 0.026428835
0.06968672 0.08658425 -0.018982092 0.015435202 -0.0028088281 0.023211947 0.028352914 0.08171042
0.042903166 0.059235495 0.051128473 -0.014124354 -0.005596823 0.018273013 -0.053366873 0.02025808
0.010613143 -0.031164272 0.078727 0.07171242 0.0023330264 -0.0016210797 -0.07833355 0.052506454
0.027146928 -0.035611074 -0.03081563 0.049279053 -0.0087069385 -0.0013561237 0.08017789 0.043596577
0.05748935 0.030027041 -0.006724777 0.0017294715 0.012438787 0.032983094 1.2627025 -0.17279166
0.057007473 0.21223317 0.47246468 0.46873447 0.10485326 0.6245236 0.36559877 -0.028234512
-0.047328703 0.0059925932 -0.04632339 -0.037621785 -0.051259674 -0.038833182 -0.03740877 0.0163089
-0.057883963 -0.042074926 -0.03758556 0.022293365 0.0432936 -0.0148682725 0.05367704 -0.015803317
-0.0772532 -0.01707196 0.008381603 0.09707949 -0.018655527 -0.01405768 0.068298854 0.03875616
0.07197333 0.07145623 0.28114712 0.31461993 0.07519188 -0.69745713 -0.6577532 -0.77855766
-0.78672606 -0.64018154 -0.7710026 -0.3822708 0.042599946 -0.26358896 -0.62601924 -0.1381109
-0.017756473 0.08710105 0.3918819 -0.44520643 0.014857488 -0.0031612245 -0.04602211 -0.05800145
0.033965852 -0.0489983 0.029328907 0.0036920456 -0.008696792 0.4822333 0.21313168 0.13386305
0.4049065 -0.07508733 -0.013446848 1.1261039 0.30344576 -0.09676088 -0.030549448 0.0008840567
0.018980142 -0.054241583 0.028551571 0.053811885 -0.019929972 -0.014567102 0.0035791872 0.018277984
0.037766688 0.09671772 0.013898784 0.059495118 0.007863728 0.030065337 0.08624888 0.044957325
0.08351121 0.39259794 0.06772449 0.58369124 -0.16793588 0.24934034 -0.8023125 -0.2237682
0.11569506 -0.014384601 -0.013009284 0.032579858 -0.017375782 0.018746454 0.01744297 -0.05459176
0.0932722 0.0661917 -0.0059352634 0.06413299 0.0073301494 -0.0023085242 -0.0067344033 0.015111386
-0.013781271 0.010930587 0.018366951 0.007988685 0.076207675 0.0195766 0.090688854 0.07238903
0.05898613 0.017643696 0.030027233 0.002143585 0.054433107 0.0071246503 -0.075856596 -0.032111682

res_conv0_2.0.bias f4 [32]
00000000: 67c0 723d bcdb f7bc ab85 96bd 6f6e 903d
00000010: 8871 c9bd 2d90 10bd 0c0c 64bd 8fe5 703d
00000020: 8d52 15bd cf60 b9bc 3e6c 11bd c91a d4be
00000030: 9a54 16be a675 813d d92d 133d 8421 e1bd
00000040: 44fb 6abd 7dab 9c3d eb81 89bd a781 48be
00000050: d2bd c6bc 3b51 5ebd 54c1 a6bc bc5d f2bd
00000060: f5b1 e5bc a61b 033d 4cdb 03bb e59d e6bc
00000070: f180 75bd 460c 6bbd 8c8d 97bd bc97 153d
0.05926552 -0.030256145 -0.07349714 0.070523135 -0.098361075 -0.035293747 -0.05567555 0.058812674
-0.03645568 -0.02262917 -0.03550362 -0.41426685 -0.1468071 0.06321268 0.035932396 -0.10992721
-0.05736853 0.07649896 -0.06714233 -0.19580708 -0.024260435 -0.054276686 -0.020355858 -0.11834285
-0.028038958 0.03200879 -0.0020119725 -0.028151462 -0.05993742 -0.05738475 -0.07400045 0.03652166

res_conv0_2.2.weight f4 [32, 32, 3, 3]
00000000: e7c8 fbbc 3b5f 75bb 525c 41bd 6fe3 eebc
00000010: acb6 2a3d 221e 4abd 0ac1 97bc bff7 1f3d
00000020: b83c 15bc f5e1 2b3d 53b0 44bd 8bf6 0ebd
00000030: 1fc3 3ebd 6cfb 8d3b 3088 99bb 8b6b 46bd
00000040: ad1f 9bbd fe51 953c 9624 81bd 216e 7bbd
00000050: 4919 dfbc fff9 ba3b 6136 873c f1c0 98bc
00000060: 6d60 843c e317 a3bc ad51 8fbd 1f6d 2bbd
00000070: 9aaf 36bd 944f a3bd c163 56bd 662c 86bd
00000080: dd88 2fbd 8f6e 03bd 6c50 89bd 1633 39bd
00000090: 2500 103c 0bc7 75bd 749c 2d3c 8a04 54bb
000000a0: eb22 4abd 72b0 1dbd 3a9b 60bd 1688 07bc
000000b0: 92c9 d3bc 230b a5bd cde9 78bc 9ec5 71bd
000000c0: 2030 eebc 4880 85bd 4e91 4dbd b927 85bd
000000d0: 3278 6fbd 790d eabd dfbe 37bd c3f0 5c3c
000000e0: b0e7 3d3d 404b 0bbd c20c 21bd f253 ab3c
000000f0: bae4 4dbd 09d4 9fba f763 5cbc ec3b c4bd
00000100: 97b6 b8bd cca0 13bd ef14 86bb 9f9a d1bb
00000110: 66a5 9dbd 578f f6bc 0a00 3ebb f3e1 c4bc
00000120: 2c3c 32bd 3669 e7bc 353f ae3c 0bba 9d3d
00000130: 4d14 b73d e07d b63d 8189 58bc 7a4c 713a
00000140: 9c2d a5bc 80ec 69bd d900 e5bb 00cf 253b
00000150: 7f60 68bd 85c3 02bd 05bb 52bd ec43 603d
00000160: 6941 a93c 728d 7abd 957f 86bd 8ff8 22bd
00000170: d19b b4bd bb9a 98bd f4f1 39bd 5e14 e6bb
00000180: 8eae 79bd c456 50bd 27c2 98bc 6a9d cfbc
00000190: 4f53 0b3d 4d91 0d3d 9035 10bb ba73 8abc
000001a0: ec63 10bc 7c8e 0c3c 06d1 0abd 82ad 07bd
000001b0: b5cd 6a3d 917d 683d 1403 afbc 274f 63bd
000001c0: c052 38ba 3a3c 48bd 9ea9 54bd c36e 623d
000001d0: 7afb 3ebd c678 9dbd bf51 6cbd 23c9 cbbb
000001e0: 51f1 5abc 6a15 bfbd dcc4 e7bb 85bb 81bd
000001f0: 8e22 37bb 9919 a83a 0e35 c1bd 04ae aebd
00000200: 61a5 543c fde7 a5bd bad7 5ebd 9166 aebd
00000210: 9eec c7bc 1254 9abd f170 d1bd 32f4 9f3c
00000220: ff34 563d bec7 06bd 8853 26bc c5b6 cabc
00000230: 4012 51bc 0ffc 3d3d d120 41bd d4a4 dcbc
00000240: 28cf ee3b 9aad 53bd aaa5 ab3c c3d3 393d
00000250: 66e6 42bd bcca e5bc 3beb 1e3d ece0 113c
00000260: 60ba 51bd 2ccf 86bd ee73 873c 0ad4 5fbd
00000270: d087 71bd 2077 7cbd 7dc6 cbbd 8c06 dabc
00000280: 483a 0cbd 24dd 24bc 7367 2f3d 0512 5d3d
00000290: b468 4cbd 5099 69bb da82 8ebc 12fb a2bc
000002a0: a5db 353d 4241 873c 5cff 7d3c 8e03 e2bb
000002b0: 2b3a c7bb 78e2 57bc 2751 cf3c 83ec 6abd
000002c0: afdd 2d3d 67ba 023a e2a2 93bd 5671 3c3c
000002d0: fdb6 25bd 4bf9 023c ed78 ee39 d965 91bc
000002e0: 8adc 10bd d88f c4bb 76f1 3fbd 722f 90bd
000002f0: 579e c8bc d080 99bc 01e0 673d ada9 183d
00000300: 7837 cb3b 0b95 4e3c 7245 463c eed6 ddbc
00000310: 6b50 b2bd 4be2 80bd 0d1e adbc 4982 00bd
00000320: 569d 1ebc 9e42 653c 244f 613b 1edb a8bd
00000330: a6e6 e5ba 648e 80bd 21a9 66bc 941f d23c
00000340: 1564 8bbd 7216 8abd f843 5ebd 7730 10bd
00000350: 1aac b0bd 0803 b5bd 985d 28ba b9f9 babd
00000360: 0b7d 31bd c543 b83b d887 283c a3ee 4a3c
00000370: d71a b0bd 5503 8cbc 7319 b9bd 5aa9 0ebd
00000380: c881 83bc 6043 4cbc e251 1b3c 1f98 30bd
00000390: a254 45bd d971 24bd 0559 68bd d7d8 e33c
000003a0: b973 21bd d73f 113d fb21 6fbd 4a50 283d
000003b0: efab ba3c 8b6d 613d 5d6e 553d b0e3 a03c
000003c0: 65a0 9f3c 8966 05bd 6971 3c3d 9423 cbbd
000003d0: dec1 6abc e130 c6bd 81a4 76bc b8f3 32bc
000003e0: c2c4 f03b 8699 23bc 8004 bebb 3bfa cdbd
000003f0: 770d c43a 5a55 c8bc e06c 9abc 3458 18bc
-0.030735446 -0.0037440795 -0.047207184 -0.029161183 0.041678116 -0.049345143 -0.018524665 0.03905463
-0.009108715 0.041963536 -0.04801972 -0.03490309 -0.0465728 0.0043329503 -0.0046854243 -0.048442405
-0.07574401 0.018227573 -0.06305806 -0.061384324 -0.027233737 0.0057060714 0.016505422 -0.01864669
0.01615926 -0.019908851 -0.06998 -0.041852113 -0.04460106 -0.07974163 -0.052341226 -0.06551437
-0.042855132 -0.03208786 -0.067047924 -0.045214735 0.008789097 -0.060004275 0.010596383 -0.0032351338
-0.049349707 -0.03849835 -0.054835536 -0.0082721915 -0.025852952 -0.08058765 -0.015192461 -0.059026353
-0.029075682 -0.06518608 -0.0501874 -0.06501717 -0.058464237 -0.11428351 -0.044859763 0.013485136
0.046363533 -0.03400731 -0.039318807 0.020914052 -0.05026696 -0.0012193929 -0.013451568 -0.09581742
-0.09019201 -0.03604202 -0.004091851 -0.006396606 -0.07697563 -0.030097647 -0.0028991723 -0.024033522
-0.043514416 -0.02824841 0.021270374 0.077015005 0.08939419 0.089107275 -0.013216377 0.00092048163
-0.02016335 -0.05711031 -0.0069886264 0.0025300384 -0.05673265 -0.031924743 -0.051447887 0.054752275
0.020661073 -0.06117005 -0.06567303 -0.039787825 -0.08818782 -0.074513875 -0.04539676 -0.007021471
-0.060957484 -0.050863996 -0.018647267 -0.025343616 0.034014996 0.034562398 -0.0022004582 -0.016900886
-0.008812886 0.008578893 -0.033890747 -0.033124454 0.057325084 0.056760374 -0.021363772 -0.055495407
-0.00070313737 -0.04888556 -0.051919572 0.05528141 -0.046626545 -0.07689051 -0.057695147 -0.0062190457
-0.013363198 -0.09330256 -0.007073028 -0.06334595 -0.002794418 0.0012825012 -0.094339475 -0.085292846
0.0129788825 -0.08100889 -0.05440495 -0.08515657 -0.02440482 -0.075355664 -0.1022662 0.019525621
0.052296635 -0.032905333 -0.010151751 -0.024745354 -0.012760699 0.04638296 -0.047150437 -0.026934065
0.0072878785 -0.05167923 0.020953018 0.045367967 -0.047583006 -0.028050773 0.038798552 0.008903723
-0.05120313 -0.06582484 0.016534772 -0.054645576 -0.05896741 -0.061637044 -0.09949968 -0.02661445
-0.03423527 -0.01006249 0.042823266 0.053972263 -0.04990454 -0.003564436 -0.01739638 -0.01989511
0.044398922 0.01651061 0.015502777 -0.0068973964 -0.006079932 -0.013176553 0.025307251 -0.05735446
0.042447742 0.00049868826 -0.07208802 0.011501631 -0.040457714 0.007994006 0.00045484994 -0.01774876
-0.035366572 -0.005998593 -0.046861134 -0.070402995 -0.024489565 -0.01873818 0.05661011 0.03727119
0.0062016807 0.012608777 0.012101518 -0.027080026 -0.08706745 -0.06293162 -0.021132493 -0.03137425
-0.0096810665 0.013992934 0.0034379447 -0.08244918 -0.0017540052 -0.06277159 -0.014078409 0.025649823
-0.068061985 -0.06742562 -0.05426404 -0.03520247 -0.08626576 -0.08838469 -0.0006422638 -0.09129662
-0.04333214 0.005623313 0.010286294 0.012385997 -0.08598869 -0.017091433 -0.09038057 -0.034829475
-0.016053095 -0.012467235 0.009479972 -0.043113824 -0.048176415 -0.040147636 -0.05672552 0.027813358
-0.039417002 0.035461273 -0.058382016 0.041092195 0.022787062 0.05503611 0.052107204 0.01963982
0.019485662 -0.03256849 0.046006594 -0.09918895 -0.014328448 -0.09677292 -0.015053869 -0.010922365
0.007347674 -0.009985333 -0.0057988763 -0.10057493 0.0014957626 -0.024454761 -0.018850744 -0.009298373

res_conv0_2.2.bias f4 [32]
00000000: b8a1 6cbd dc27 94bd a918 76bd 3847 a5bd
00000010: 04df 4bbd 2327 cebc c098 acbd daf3 89bd
00000020: 9a1c 96bd bbc5 80bc 7450 b2bd 151b 8abd
00000030: b875 5d3d d74f 88bc a1f2 17bd 8551 95bd
00000040: 38fa e6bc fb2b 56bd 7496 ab3c ad7e 09bd
00000050: 8767 0dbd c563 47bd 0a90 06bd 894a adbd
00000060: d081 21bc 6585 c5bd 9211 97bd cd36 97bc
00000070: f190 ebb9 875e b7bd 20f7 aabc ce73 9bbd
-0.057771415 -0.07234165 -0.06008211 -0.080702245 -0.04977323 -0.025165146 -0.08427572 -0.06735964
-0.07329674 -0.015719285 -0.087067515 -0.06743447 0.054067343 -0.016639633 -0.037096623 -0.07290939
-0.028195485 -0.052288037 0.020945765 -0.033568073 -0.03452256 -0.048679132 -0.03285221 -0.08461482
-0.00985761 -0.096445836 -0.07376398 -0.018458748 -0.00044930683 -0.089535765 -0.020869792 -0.07590447

res_conv0_3.0.weight f4 [32, 32, 3, 3]
00000000: 0a53 8f3d 654e 573d 937d 0f3b 9a85 52bd
00000010: 26e2 a53d 9eef 833d c233 20bd f6f0 f03b
00000020: 8451 c2bc 9e1c 843c 8995 063d 0c3b 8cbc
00000030: 2ca9 07bc 82aa cb3c c866 863b 1e6e 9e3c
00000040: 9c2a 123c 2e8d 843c 6fc3 febc 3d46 1b3d
00000050: 9aab 10bd 00de b3b9 5a16 fc3c 5ef1 5cbd
00000060: 9448 593c 6d42 0e3d 1f94 6c3d b0f6 6dbb
00000070: 24c8 393c 53fd 223d 9eb2 15bd 4fea f0bc
00000080: 0e35 65bd 7cc0 673c ec9d 503c 8034 28bd
00000090: 2a13 f13b 19e2 bf3c 33b9 cebc c0dd 25ba
000000a0: a204 d1bc 9775 5c3d 7659 24bd 5455 07bd
000000b0: 2f90 80bc b2c9 27bd ca91 61bd 17c4 133d
000000c0: 7a3f 5dbd ae0c d13c a3b9 31bd 8810 13bd
000000d0: 6a6d d1bc dc4c b6bc 1782 42be e3c9 3bbe
000000e0: eb16 d8bd a6b5 15be 9b81 22be 0779 28be
000000f0: 44dc 49be 5b40 11be 5327 ecbd 889c e03b
00000100: d61e 9b3c e3fd 613d b80b c53b 90ee 6d3b
00000110: 6d05 103d ac7b 6c3c 61ab 5cbd fc5b 45bc
00000120: 6e5b a53c 7038 76bc 0517 4abd d30e 4f3d
00000130: c122 553d 76d8 d93c 32f1 fabc e9a3 66bd
00000140: 8fc4 093d dedf 0fbd a667 ee3c 622c 30bd
00000150: a9de f8bc 9ce6 5f3c 2ba9 063d 6fb7 643d
00000160: 8854 6ebc 549b 0e3c 00ea d3ba 7a1f 0abd
00000170: 14d4 94bc d0c6 5dbb d2f3 8a3c 6ceb 393c
00000180: 2e18 ff3c 8650 20bd c584 483d c8a4 973b
00000190: 8ae6 fe3c 51f3 68bd decd e03c 9469 56bc
000001a0: 46cb a23c c5d6 0bbd 5349 163d d530 1a3d
000001b0: a724 5c3d 5ccd 403d 3e7b 55bd 9a35 a739
000001c0: d019 963b 0c2c 00bd 3a60 d43c 9cc5 053c
000001d0: 968e 6fbd 4024 8aba 1d07 1c3d 8c32 6c3c
000001e0: 475d b33c 51eb 6a3d 80a7 afba 3b2a 0c3b
000001f0: c1c8 c83c 3a15 f53c a14a 6a3d 0040 8837
00000200: 1e17 d53c 2956 a0bc b85c babb 4d9d 433d
00000210: b265 87bc 8e99 1ebd 2c3b acbc f830 0bbc
00000220: 9aa8 9abc 470c 1cbd 68ca d73b 82da c13c
00000230: 1e83 e53c 00ae 8aba 50c2 bdbc 7cb7 53bd
00000240: 989b 37bc 87e7 013d c6f0 cc3c eb4e 1dbd
00000250: cf89 4b3d cc19 a8bc 1e8f bc3c e84b d5bc
00000260: 747f 29bc b32b 003d a0a2 fcbc 4ec5 1fbd
00000270: 2035 13bb e89a b3bb e085 24bb 7a46 e73c
00000280: 0679 38bd 005f 8abb 9167 50be 8ce7 45be
00000290: 3e45 3ebe 3c8b 0dbe 8e37 49be 26a9 6fbe
000002a0: 187e 43be 387a 70be 1b5f 0abe 57a6 dbbd
000002b0: e123 48bd a05d 1b3d ea8e d7bd 0dd5 cbbd
000002c0: ae88 abbc cc2c bcbd c099 b3bd c24a 0ebd
000002d0: 9890 b73b 0034 3bbd af62 0a3d e371 4a3d
000002e0: edf1 433d 28f3 ec3b 64ec 30bd ece9 1a3c
000002f0: 9bf9 e4bc 8e47 bebc 23fa 2a3d b191 253d
00000300: c4db 7dbd d294 a4bc 6dbb eb3c 4b48 67bd
00000310: 1b4a 15bd 1955 2fbd 97e2 00bd cf2d 0c3d
00000320: 18a7 8c3b c65b 71bd 4176 0b3c 8e46 15bd
00000330: 27a6 313d e405 7b3c c0df c4bb a33a 513d
00000340: 0a70 843c e708 483d 53fc 2b3d 00a1 1ebc
00000350: cb22 60bd 1266 a4bc 22a2 18bd 1a4d 2fbd
00000360: 2c08 30bd a0ea 32bb 2143 1b3d 9209 64bd
00000370: be04 c43c 61e9 5f3d 4676 613c 54d8 a23b
00000380: 10c6 01bd dcfe 6e3c d285 10bd 3915 2b3d
00000390: 300a 82bb 2edc 17bd 08df fb3b d628 1cbd
000003a0: f228 57bd 812d 45bd e8d5 3bbc f821 f73b
000003b0: 0402 b3bc 86b1 05bd dcf0 203c 1fe8 61bd
000003c0: ec78 233c 1c82 22bd 0145 573d 317d 363d
000003d0: b03e 80bc 1ce4 d83b b076 8ebc 32e1 82bd
000003e0: b854 54bc fdb1 8fba e7a9 15bc e895 33bc
000003f0: e378 273d a9bc 103d 2fe8 113d 7207 8e3c
0.0699826 0.052564997 0.0021894916 -0.051396944 0.08099775 0.06442188 -0.03911186 0.0073529435
-0.02372051 0.016126927 0.03285745 -0.017118 -0.00828008 0.024861578 0.004101608 0.019339617
0.008921292 0.016180601 -0.03109905 0.03790878 -0.035319902 -0.00034306943 0.030772377 -0.053941123
0.013261933 0.034731317 0.057758447 -0.0036310367 0.011339221 0.03979237 -0.036547296 -0.029408602
-0.0559588 0.014145013 0.012732964 -0.041065693 0.007357021 0.023423241 -0.025234794 -0.0006327294
-0.025514904 0.05382308 -0.04012438 -0.03304036 -0.015693752 -0.040963836 -0.055070676 0.036075678
-0.054015614 0.025518741 -0.043389928 -0.035904437 -0.025564868 -0.022253446 -0.18994938 -0.18338732
-0.10551246 -0.14620075 -0.15869753 -0.16452418 -0.19712931 -0.14184706 -0.11530938 0.0068545975
0.018935602 0.055173766 0.00601336 0.0036305524 0.035161424 0.014433783 -0.053874377 -0.012045857
0.020185199 -0.015028104 -0.04933836 0.050551247 0.052035097 0.026592474 -0.030632589 -0.05630866
0.03363472 -0.035125606 0.029102158 -0.043011077 -0.03037961 0.013665821 0.032876175 0.055839
-0.014546521 0.008704025 -0.001616776 -0.033721425 -0.018167533 -0.0033840425 0.016961966 0.011347633
0.03113946 -0.039139293 0.048954744 0.0046277978 0.031115789 -0.05687267 0.027441915 -0.013086695
0.019872319 -0.034140367 0.03669102 0.037644226 0.053745892 0.047070846 -0.052119486 0.00031892658
0.004580714 -0.031292006 0.02592479 0.0081647895 -0.05848559 -0.0010539368 0.03809272 0.014416348
0.021895064 0.05735332 -0.0013401359 0.0021387476 0.02450979 0.029917348 0.057200078 1.6242266e-05
0.026012 -0.019572334 -0.0056873225 0.047757436 -0.016527984 -0.03872066 -0.02102431 -0.008495562
-0.018879224 -0.038097646 0.006585408 0.023663763 0.028016623 -0.001058042 -0.023163944 -0.051688656
-0.01120653 0.031714942 0.025017153 -0.03840534 0.04969197 -0.020520113 0.023017462 -0.026037171
-0.010345329 0.031291675 -0.030839264 -0.039006524 -0.0022462085 -0.0054811127 -0.002510421 0.028231848
-0.045037292 -0.0042227507 -0.20352007 -0.1932661 -0.18581101 -0.13822645 -0.19650099 -0.23404369
-0.1909107 -0.23484123 -0.13512842 -0.10725086 -0.04886234 0.037931085 -0.105253056 -0.099527456
-0.020939197 -0.09188232 -0.0876956 -0.034739263 0.0056019537 -0.045703888 0.03378552 0.049425017
0.04783814 0.007231135 -0.04319419 0.009455185 -0.027951052 -0.02322748 0.041742455 0.040422145
-0.061977163 -0.020090494 0.028775895 -0.05646543 -0.036447626 -0.042805765 -0.031466093 0.034223374
0.00429238 -0.058925413 0.008512081 -0.03644424 0.043371346 0.015321229 -0.0060081184 0.05108131
0.016166706 0.048836615 0.041988682 -0.00968194 -0.05472068 -0.020068202 -0.037263997 -0.04279814
-0.042976543 -0.0027300492 0.037905816 -0.05567319 0.023928043 0.054665927 0.013761109 0.004969636
-0.031683028 0.01458713 -0.03528387 0.041768286 -0.0039684996 -0.037075214 0.0076864995 -0.03812488
-0.052529283 -0.0481391 -0.011464573 0.007541891 -0.021851547 -0.032640003 0.00982305 -0.05515301
0.0099775605 -0.039674863 0.05255604 0.044552986 -0.015654892 0.0066189896 -0.017390579 -0.06390609
-0.012959652 -0.0010963079 -0.009134746 -0.010961033 0.04088677 0.03533617 0.03562182 0.017337535

res_conv0_3.0.bias f4 [32]
00000000: 0d8e 74be 1520 adbc a76c 7ebd 6961 82bd
00000010: 98bd 75bd 51d3 52bb 18ab 0dbd 534b 0fbd
00000020: 111f 33bd 3bec 8dbd ac5e babd a38c 0bbd
00000030: 557c 5bbd eb4b c4bc ba3e 92bd e262 b7bd
00000040: e221 97bc 0dc4 28be 9a99 323d 8ae7 4fbe
00000050: 0b18 b9bd 3f92 3dbd 5d17 c0bd c39f 9ebd
00000060: aba5 19bd 5dc1 d0bd 8f8e 49be dfc5 fabc
00000070: 5529 c6bd 3f2f 50be 0e0a 34bd a444 51bc
-0.23882313 -0.021133462 -0.062115338 -0.06366236 -0.059995264 -0.0032169411 -0.034586996 -0.034983944
-0.0437308 -0.06929823 -0.091000885 -0.03406967 -0.05358537 -0.023961982 -0.071408704 -0.08954407
-0.018448774 -0.16481037 0.043603517 -0.20303169 -0.09037789 -0.04628205 -0.09379456 -0.07745316
-0.03751151 -0.10193131 -0.19683288 -0.03061193 -0.09675852 -0.20330523 -0.0439549 -0.012772713

res_conv0_3.2.weight f4 [32, 32, 3, 3]
00000000: 438a 6c3d 7fd7 eb3d a5b8 cc3d e7c4 c33c
00000010: 6707 a63d 3861 b93d 3e1a b13d 4157 c03d
00000020: 94ea 013e c8b0 a3bd 7590 52bb b205 1abd
00000030: 4ab1 313d 078f e03c 078a c8bd d852 333d
00000040: 1ac3 b0bd 9df1 9bbd 3c29 e7bc 789e 343c
00000050: 0dda 98be a0b6 4d3d 8cf1 753c 0a82 38be
00000060: b21a 5b3e 213f 223e 9c3b 17be 7219 d13c
00000070: befc 26bd fed7 ecbc 1efe 18bd 5ec4 d8bc
00000080: e860 bc3b d18c 0d3d 1e67 8bbc 7e92 0abd
00000090: 578c 8b3d e2bd 833d 54d2 8b3b 05a3 a63c
000000a0: 8de9 b23c 35c9 813d 9ad4 763d 27ca 623d
000000b0: 7ef0 6c3d ea9c 40bd e5bf 00be c5bb eabd
000000c0: ac0e 03be e9fa 5bbe 005d a2bd 502b 12bd
000000d0: ee83 fd3c 389e b5bc 77d0 423d a52c 003d
000000e0: 8903 233d 9b3d e73c afbc cf3c 3d20 173d
000000f0: ffcb 05bd 7998 163d 0fa0 0d3b 91ae 913d
00000100: 3cbc 7d3a 6f00 9e3c 3f7d 093d 2fb0 8bbd
00000110: 2c46 443d 6b8c d63c afd2 6dbc 6e74 0fbd
00000120: c81c 1dbd 0344 4a3d 0990 fd3c 6737 66bd
00000130: 554d 353d 7f0f 90bd 92f2 26bc f405 593d
00000140: 283e 13bd b829 84bc 6203 853c 4ca5 29bd
00000150: 801d 693d d73d d13c 8925 463c 8843 2e3d
00000160: 30c5 88bb 5880 a23c 1adf 1d3d 32c0 8b3c
00000170: 5460 58bd 759e 9d3d 5bb1 363d 18ca acbc
00000180: 4e7b d3bc f350 5bbd 141c 1c3c 18d8 973d
00000190: 8ba8 ff3c 9519 a13d 075a cbbb a8d4 a53d
000001a0: 89ef 563b d92a 9d3d f182 56bc 11e2 7d3c
000001b0: f1d0 753d 7fbc 993c 82a3 213d b2a1 a93d
000001c0: 9fff 6dbc 7450 b43d 85a2 5d3d 23a0 8a3d
000001d0: 66d8 573d 0921 203c 5c87 663d 4bfd 743d
000001e0: 8464 4f39 046f 923d 3073 e43c 7076 3e3d
000001f0: 7c7e 373d a0d7 85bc 1448 5b3c 41f8 4abd
00000200: 2434 04bd 1963 35bd 7815 e63b ece0 eebc
00000210: 80d7 a8ba 5c12 473c c00a 11ba 6d43 3e3d
00000220: 17a0 993d 53a2 b33d e5e3 143c 9f8f 813d
00000230: 9b03 15bc 41c6 eb3c d4b3 043d 6bbd 143d
00000240: 921c 633d 1def 9c3c 8ea7 e13c 42a6 99bb
00000250: b4c8 5b3d e11c 16bc f017 07bb 6d5f 353d
00000260: 8af6 933d 57dd 053e 3dd1 193e ec4a ec3d
00000270: ce15 383e de73 253e 2619 cc3d 07a9 503e
00000280: c6e9 fa3d 87dd 9f3d 1c76 93bd d1aa 8bbe
00000290: d446 15bf f0ec 083e f333 c0bd f979 d3be
000002a0: b246 933e 9e0e 1abe a26d 01bf cac1 ea3d
000002b0: 2c7b ea3d 0bc5 293e a221 723e 634f fc3d
000002c0: 159a f43d 3937 753e 5549 593e a328 103e
000002d0: c67a 67bd e47d 813c 4bde 31bc 1025 0d3d
000002e0: fb51 923c c8a1 1fbd f322 5f3d 2570 723c
000002f0: 500e 2d3d ab3c ad3c d7fb b73c f970 353d
00000300: dc2c f4bb 0fdd f53c 834b 193c a090 6dbb
00000310: 20da 6b3d a13d 3a3d 3826 1d3d b2d4 f1bc
00000320: 4eda 473d 44c6 3c3d a84c 4ebc e83f 053d
00000330: d20d 543c 8ac2 283d 370a 67bb 24db 9c3d
00000340: f1c4 033d 59f5 243d 3090 143d 774e a33c
00000350: 8735 423d 9df1 113d b04e a1bc 0321 a43c
00000360: ecc8 9fbc e136 cd3c f567 b4be 09d2 653e
00000370: e23d 7bbd 1ea0 41be 3684 913e 427b 62bd
00000380: dccc a1be f51f b23e da82 cd3c beb5 febd
00000390: a19c 733e acd0 dcbd 1a5d c8bd 3218 803e
000003a0: bbf0 f5bb 781a e7bd a1dc 0d3e 3a19 283e
000003b0: 2882 283e daf2 5f3e 4200 453e 72e4 383e
000003c0: 07ab d93d 1ec7 5b3e ab26 3a3e 96ae 703d
000003d0: b8a8 333d 7da4 26bd 8460 053b 9b2d 8b3d
000003e0: 8cb1 36bd 92b2 d13c 727b f7bb 0a6a 4abd
000003f0: 48dd 023b a862 a33d db54 303d d2f0 803c
0.057749044 0.11515712 0.09996156 0.023897601 0.08106881 0.09051746 0.086475834 0.09391642
0.1268714 -0.07992703 -0.003212956 -0.037603088 0.043381967 0.02741195 -0.097919516 0.043780178
-0.08630963 -0.076144435 -0.028217904 0.01102411 -0.2985386 0.050222993 0.015011203 -0.18018356
0.21396902 0.15844394 -0.14768833 0.025524829 -0.040768377 -0.028911587 -0.03735172 -0.026460823
0.005748857 0.03455812 -0.017016944 -0.033831112 0.06813877 0.06432702 0.0042670164 0.020341406
0.021839881 0.06337205 0.060261346 0.05536857 0.05784654 -0.047024645 -0.12573202 -0.114615954
-0.12798566 -0.21482433 -0.079278946 -0.035685837 0.030946698 -0.022170171 0.04756209 0.031292576
0.039798293 0.028227618 0.025358526 0.03689598 -0.03266525 0.036766503 0.0021610295 0.07113374
0.0009679233 0.019287316 0.03356671 -0.06820714 0.047918484 0.026190003 -0.014515563 -0.035023145
-0.038357526 0.049381267 0.03095247 -0.05620518 0.044263203 -0.07034206 -0.010189669 0.052984193
-0.03594795 -0.016133174 0.016236965 -0.041417405 0.0569129 0.025542183 0.01209391 0.04254487
-0.004173897 0.01983659 0.038542844 0.01705942 -0.05282624 0.07696239 0.044602733 -0.02109246
-0.025815632 -0.053543996 0.009528179 0.074142635 0.031208297 0.078662075 -0.0062058005 0.080972016
0.0032796583 0.07674188 -0.013092742 0.015495793 0.060013715 0.01876664 0.039462574 0.08282794
-0.014526277 0.08804408 0.05411007 0.06768825 0.052696608 0.009773501 0.056281433 0.05981187
0.00019778503 0.07150081 0.027886957 0.04649967 0.04479836 -0.01633817 0.013383884 -0.04955316
-0.032276288 -0.04428396 0.0070216022 -0.029159985 -0.0012881607 0.012150373 -0.0005532913 0.04645102
0.07501238 0.08771195 0.009087537 0.06326222 -0.009095098 0.028781058 0.03239806 0.036313456
0.05544717 0.019156987 0.027545717 -0.004689009 0.053658202 -0.009162159 -0.0020613633 0.04428046
0.07224758 0.13072716 0.15021224 0.11537728 0.17977068 0.16157481 0.09965734 0.20376979
0.1225162 0.07805925 -0.07200262 -0.2727876 -0.583112 0.13371634 -0.093849085 -0.41303995
0.28764874 -0.15044639 -0.5055791 0.114627436 0.114492744 0.16579072 0.23645642 0.12319829
0.11943451 0.23946847 0.2121938 0.14078002 -0.05651357 0.0158071 -0.010856221 0.034459174
0.017861357 -0.038972646 0.05447669 0.014797245 0.042249978 0.021147093 0.022458954 0.044297192
-0.0074516367 0.030012636 0.009356382 -0.0036249533 0.057581067 0.04546893 0.038366526 -0.029520366
0.048792176 0.04608752 -0.012591518 0.03253165 0.012942748 0.041201152 -0.0035253891 0.07658985
0.03217024 0.040273044 0.03627032 0.019934876 0.04741433 0.03563081 -0.019690841 0.020035272
-0.019504987 0.025050582 -0.35235563 0.22443403 -0.061338313 -0.18908736 0.2842118 -0.05529333
-0.31601608 0.34790006 0.025086809 -0.12437008 0.23790218 -0.107819885 -0.09783383 0.2501846
-0.007505504 -0.112843454 0.13853694 0.16415873 0.164559 0.21869984 0.1923838 0.18055895
0.10628324 0.21462676 0.18178813 0.058760248 0.043862075 -0.040684212 0.0020351717 0.06795808
-0.044602916 0.025597844 -0.0075525576 -0.049417533 0.001996832 0.079778016 0.043049674 0.015739832

res_conv0_3.2.bias f4 [32]
00000000: 401a 19bd 1677 f7bc d848 b1bd 9cd2 2bbd
00000010: 5ce4 53bd 1866 d7bc 6e9c c3bd ea58 36be
00000020: 262a 97bd b07d 0dbc dd09 a5bd 9b4a 3cbd
00000030: ab78 a0bd d504 13bd 4f25 77bd e1f0 e7bc
00000040: 6419 5cbd 326c 7abc efdd b2bc ab8a c2bc
00000050: 8ff2 aabd 4faa 90be 03d4 cd3b 1942 15bd
00000060: 2afd b0bc 6901 9abd 0912 75bd bbbe 2cbe
00000070: bd8c 20bd 08fd 32bd 786f 5fbd f78e 05bc
-0.03737855 -0.030208152 -0.08656472 -0.0419489 -0.051731452 -0.0262938 -0.09551321 -0.17807356
-0.07381086 -0.008635923 -0.08058522 -0.045969587 -0.078355156 -0.03589328 -0.060338315 -0.028313102
-0.053735152 -0.015284585 -0.021834342 -0.023747763 -0.08347046 -0.28254935 0.0062813773 -0.03643999
-0.021605093 -0.075198 -0.059831653 -0.16869633 -0.03919672 -0.04369834 -0.054549664 -0.008151761
